2024-03-30 19:29:35,452 - default - INFO - Class model: SpectrogramCNN
Model architecture:
SpectrogramCNN(
  (arch): Sequential(
    (block1): Sequential(
      (Conv2d_1): Conv2d(2, 16, kernel_size=(3, 3), stride=(1, 1))
      (BatchNorm2d_1): BatchNorm2d(16, eps=1e-05, momentum=0.1, affine=True, track_running_stats=True)
      (ReLU_1): ReLU()
      (MaxPool2d_1): MaxPool2d(kernel_size=2, stride=2, padding=0, dilation=1, ceil_mode=False)
    )
    (block2): Sequential(
      (Conv2d_1): Conv2d(16, 32, kernel_size=(3, 3), stride=(1, 1))
      (BatchNorm2d_1): BatchNorm2d(32, eps=1e-05, momentum=0.1, affine=True, track_running_stats=True)
      (ReLU_1): ReLU()
      (MaxPool2d_1): MaxPool2d(kernel_size=2, stride=2, padding=0, dilation=1, ceil_mode=False)
    )
    (block3): Sequential(
      (Flatten_1): Flatten(start_dim=1, end_dim=-1)
      (Linear_1): Linear(in_features=28800, out_features=256, bias=True)
      (Sigmoid_1): Sigmoid()
      (Dropout_1): Dropout(p=0.2, inplace=False)
      (Linear_2): Linear(in_features=256, out_features=7, bias=True)
    )
  )
)
2024-03-30 19:30:30,536 - default - INFO - Class model: SpectrogramCNN
Model architecture:
SpectrogramCNN(
  (arch): Sequential(
    (block1): Sequential(
      (Conv2d_1): Conv2d(2, 16, kernel_size=(3, 3), stride=(1, 1))
      (BatchNorm2d_1): BatchNorm2d(16, eps=1e-05, momentum=0.1, affine=True, track_running_stats=True)
      (ReLU_1): ReLU()
      (MaxPool2d_1): MaxPool2d(kernel_size=2, stride=2, padding=0, dilation=1, ceil_mode=False)
    )
    (block2): Sequential(
      (Conv2d_1): Conv2d(16, 32, kernel_size=(3, 3), stride=(1, 1))
      (BatchNorm2d_1): BatchNorm2d(32, eps=1e-05, momentum=0.1, affine=True, track_running_stats=True)
      (ReLU_1): ReLU()
      (MaxPool2d_1): MaxPool2d(kernel_size=2, stride=2, padding=0, dilation=1, ceil_mode=False)
    )
    (block3): Sequential(
      (Flatten_1): Flatten(start_dim=1, end_dim=-1)
      (Linear_1): Linear(in_features=28800, out_features=256, bias=True)
      (Sigmoid_1): Sigmoid()
      (Dropout_1): Dropout(p=0.2, inplace=False)
      (Linear_2): Linear(in_features=256, out_features=7, bias=True)
    )
  )
)
2024-03-30 19:30:54,352 - default - INFO - Class model: SpectrogramCNN
Model architecture:
SpectrogramCNN(
  (arch): Sequential(
    (block1): Sequential(
      (Conv2d_1): Conv2d(2, 16, kernel_size=(3, 3), stride=(1, 1))
      (BatchNorm2d_1): BatchNorm2d(16, eps=1e-05, momentum=0.1, affine=True, track_running_stats=True)
      (ReLU_1): ReLU()
      (MaxPool2d_1): MaxPool2d(kernel_size=2, stride=2, padding=0, dilation=1, ceil_mode=False)
    )
    (block2): Sequential(
      (Conv2d_1): Conv2d(16, 32, kernel_size=(3, 3), stride=(1, 1))
      (BatchNorm2d_1): BatchNorm2d(32, eps=1e-05, momentum=0.1, affine=True, track_running_stats=True)
      (ReLU_1): ReLU()
      (MaxPool2d_1): MaxPool2d(kernel_size=2, stride=2, padding=0, dilation=1, ceil_mode=False)
    )
    (block3): Sequential(
      (Flatten_1): Flatten(start_dim=1, end_dim=-1)
      (Linear_1): Linear(in_features=28800, out_features=256, bias=True)
      (Sigmoid_1): Sigmoid()
      (Dropout_1): Dropout(p=0.2, inplace=False)
      (Linear_2): Linear(in_features=256, out_features=7, bias=True)
    )
  )
)
2024-03-30 19:31:50,986 - default - INFO - Class model: SpectrogramCNN
Model architecture:
SpectrogramCNN(
  (arch): Sequential(
    (block1): Sequential(
      (Conv2d_1): Conv2d(2, 16, kernel_size=(3, 3), stride=(1, 1))
      (BatchNorm2d_1): BatchNorm2d(16, eps=1e-05, momentum=0.1, affine=True, track_running_stats=True)
      (ReLU_1): ReLU()
      (MaxPool2d_1): MaxPool2d(kernel_size=2, stride=2, padding=0, dilation=1, ceil_mode=False)
    )
    (block2): Sequential(
      (Conv2d_1): Conv2d(16, 32, kernel_size=(3, 3), stride=(1, 1))
      (BatchNorm2d_1): BatchNorm2d(32, eps=1e-05, momentum=0.1, affine=True, track_running_stats=True)
      (ReLU_1): ReLU()
      (MaxPool2d_1): MaxPool2d(kernel_size=2, stride=2, padding=0, dilation=1, ceil_mode=False)
    )
    (block3): Sequential(
      (Flatten_1): Flatten(start_dim=1, end_dim=-1)
      (Linear_1): Linear(in_features=28800, out_features=256, bias=True)
      (Sigmoid_1): Sigmoid()
      (Dropout_1): Dropout(p=0.2, inplace=False)
      (Linear_2): Linear(in_features=256, out_features=7, bias=True)
    )
  )
)
2024-03-30 19:34:43,315 - default - INFO - Class model: SpectrogramCNN
Model architecture:
SpectrogramCNN(
  (arch): Sequential(
    (block1): Sequential(
      (Conv2d_1): Conv2d(2, 16, kernel_size=(3, 3), stride=(1, 1))
      (BatchNorm2d_1): BatchNorm2d(16, eps=1e-05, momentum=0.1, affine=True, track_running_stats=True)
      (ReLU_1): ReLU()
      (MaxPool2d_1): MaxPool2d(kernel_size=2, stride=2, padding=0, dilation=1, ceil_mode=False)
    )
    (block2): Sequential(
      (Conv2d_1): Conv2d(16, 32, kernel_size=(3, 3), stride=(1, 1))
      (BatchNorm2d_1): BatchNorm2d(32, eps=1e-05, momentum=0.1, affine=True, track_running_stats=True)
      (ReLU_1): ReLU()
      (MaxPool2d_1): MaxPool2d(kernel_size=2, stride=2, padding=0, dilation=1, ceil_mode=False)
    )
    (block3): Sequential(
      (Flatten_1): Flatten(start_dim=1, end_dim=-1)
      (Linear_1): Linear(in_features=28800, out_features=256, bias=True)
      (Sigmoid_1): Sigmoid()
      (Dropout_1): Dropout(p=0.2, inplace=False)
      (Linear_2): Linear(in_features=256, out_features=7, bias=True)
    )
  )
)
2024-03-30 19:35:10,287 - default - INFO - Class model: SpectrogramCNN
Model architecture:
SpectrogramCNN(
  (arch): Sequential(
    (block1): Sequential(
      (Conv2d_1): Conv2d(2, 16, kernel_size=(3, 3), stride=(1, 1))
      (BatchNorm2d_1): BatchNorm2d(16, eps=1e-05, momentum=0.1, affine=True, track_running_stats=True)
      (ReLU_1): ReLU()
      (MaxPool2d_1): MaxPool2d(kernel_size=2, stride=2, padding=0, dilation=1, ceil_mode=False)
    )
    (block2): Sequential(
      (Conv2d_1): Conv2d(16, 32, kernel_size=(3, 3), stride=(1, 1))
      (BatchNorm2d_1): BatchNorm2d(32, eps=1e-05, momentum=0.1, affine=True, track_running_stats=True)
      (ReLU_1): ReLU()
      (MaxPool2d_1): MaxPool2d(kernel_size=2, stride=2, padding=0, dilation=1, ceil_mode=False)
    )
    (block3): Sequential(
      (Flatten_1): Flatten(start_dim=1, end_dim=-1)
      (Linear_1): Linear(in_features=28800, out_features=256, bias=True)
      (Sigmoid_1): Sigmoid()
      (Dropout_1): Dropout(p=0.2, inplace=False)
      (Linear_2): Linear(in_features=256, out_features=7, bias=True)
    )
  )
)
2024-03-30 19:36:13,040 - default - INFO - Class model: SpectrogramCNN
Model architecture:
SpectrogramCNN(
  (arch): Sequential(
    (block1): Sequential(
      (Conv2d_1): Conv2d(2, 16, kernel_size=(3, 3), stride=(1, 1))
      (BatchNorm2d_1): BatchNorm2d(16, eps=1e-05, momentum=0.1, affine=True, track_running_stats=True)
      (ReLU_1): ReLU()
      (MaxPool2d_1): MaxPool2d(kernel_size=2, stride=2, padding=0, dilation=1, ceil_mode=False)
    )
    (block2): Sequential(
      (Conv2d_1): Conv2d(16, 32, kernel_size=(3, 3), stride=(1, 1))
      (BatchNorm2d_1): BatchNorm2d(32, eps=1e-05, momentum=0.1, affine=True, track_running_stats=True)
      (ReLU_1): ReLU()
      (MaxPool2d_1): MaxPool2d(kernel_size=2, stride=2, padding=0, dilation=1, ceil_mode=False)
    )
    (block3): Sequential(
      (Flatten_1): Flatten(start_dim=1, end_dim=-1)
      (Linear_1): Linear(in_features=28800, out_features=256, bias=True)
      (Sigmoid_1): Sigmoid()
      (Dropout_1): Dropout(p=0.2, inplace=False)
      (Linear_2): Linear(in_features=256, out_features=7, bias=True)
    )
  )
)
2024-03-30 19:36:32,181 - default - INFO - Class model: SpectrogramCNN
Model architecture:
SpectrogramCNN(
  (arch): Sequential(
    (block1): Sequential(
      (Conv2d_1): Conv2d(2, 16, kernel_size=(3, 3), stride=(1, 1))
      (BatchNorm2d_1): BatchNorm2d(16, eps=1e-05, momentum=0.1, affine=True, track_running_stats=True)
      (ReLU_1): ReLU()
      (MaxPool2d_1): MaxPool2d(kernel_size=2, stride=2, padding=0, dilation=1, ceil_mode=False)
    )
    (block2): Sequential(
      (Conv2d_1): Conv2d(16, 32, kernel_size=(3, 3), stride=(1, 1))
      (BatchNorm2d_1): BatchNorm2d(32, eps=1e-05, momentum=0.1, affine=True, track_running_stats=True)
      (ReLU_1): ReLU()
      (MaxPool2d_1): MaxPool2d(kernel_size=2, stride=2, padding=0, dilation=1, ceil_mode=False)
    )
    (block3): Sequential(
      (Flatten_1): Flatten(start_dim=1, end_dim=-1)
      (Linear_1): Linear(in_features=28800, out_features=256, bias=True)
      (Sigmoid_1): Sigmoid()
      (Dropout_1): Dropout(p=0.2, inplace=False)
      (Linear_2): Linear(in_features=256, out_features=7, bias=True)
    )
  )
)
2024-03-30 19:37:07,462 - default - INFO - Class model: SpectrogramCNN
Model architecture:
SpectrogramCNN(
  (arch): Sequential(
    (block1): Sequential(
      (Conv2d_1): Conv2d(2, 16, kernel_size=(3, 3), stride=(1, 1))
      (BatchNorm2d_1): BatchNorm2d(16, eps=1e-05, momentum=0.1, affine=True, track_running_stats=True)
      (ReLU_1): ReLU()
      (MaxPool2d_1): MaxPool2d(kernel_size=2, stride=2, padding=0, dilation=1, ceil_mode=False)
    )
    (block2): Sequential(
      (Conv2d_1): Conv2d(16, 32, kernel_size=(3, 3), stride=(1, 1))
      (BatchNorm2d_1): BatchNorm2d(32, eps=1e-05, momentum=0.1, affine=True, track_running_stats=True)
      (ReLU_1): ReLU()
      (MaxPool2d_1): MaxPool2d(kernel_size=2, stride=2, padding=0, dilation=1, ceil_mode=False)
    )
    (block3): Sequential(
      (Flatten_1): Flatten(start_dim=1, end_dim=-1)
      (Linear_1): Linear(in_features=28800, out_features=256, bias=True)
      (Sigmoid_1): Sigmoid()
      (Dropout_1): Dropout(p=0.2, inplace=False)
      (Linear_2): Linear(in_features=256, out_features=7, bias=True)
    )
  )
)
2024-03-30 19:37:30,443 - default - INFO - Class model: SpectrogramCNN
Model architecture:
SpectrogramCNN(
  (arch): Sequential(
    (block1): Sequential(
      (Conv2d_1): Conv2d(2, 16, kernel_size=(3, 3), stride=(1, 1))
      (BatchNorm2d_1): BatchNorm2d(16, eps=1e-05, momentum=0.1, affine=True, track_running_stats=True)
      (ReLU_1): ReLU()
      (MaxPool2d_1): MaxPool2d(kernel_size=2, stride=2, padding=0, dilation=1, ceil_mode=False)
    )
    (block2): Sequential(
      (Conv2d_1): Conv2d(16, 32, kernel_size=(3, 3), stride=(1, 1))
      (BatchNorm2d_1): BatchNorm2d(32, eps=1e-05, momentum=0.1, affine=True, track_running_stats=True)
      (ReLU_1): ReLU()
      (MaxPool2d_1): MaxPool2d(kernel_size=2, stride=2, padding=0, dilation=1, ceil_mode=False)
    )
    (block3): Sequential(
      (Flatten_1): Flatten(start_dim=1, end_dim=-1)
      (Linear_1): Linear(in_features=28800, out_features=256, bias=True)
      (Sigmoid_1): Sigmoid()
      (Dropout_1): Dropout(p=0.2, inplace=False)
      (Linear_2): Linear(in_features=256, out_features=7, bias=True)
    )
  )
)
2024-03-30 19:40:47,220 - default - INFO - Class model: SpectrogramCNN
Model architecture:
SpectrogramCNN(
  (arch): Sequential(
    (block1): Sequential(
      (Conv2d_1): Conv2d(2, 16, kernel_size=(3, 3), stride=(1, 1))
      (BatchNorm2d_1): BatchNorm2d(16, eps=1e-05, momentum=0.1, affine=True, track_running_stats=True)
      (ReLU_1): ReLU()
      (MaxPool2d_1): MaxPool2d(kernel_size=2, stride=2, padding=0, dilation=1, ceil_mode=False)
    )
    (block2): Sequential(
      (Conv2d_1): Conv2d(16, 32, kernel_size=(3, 3), stride=(1, 1))
      (BatchNorm2d_1): BatchNorm2d(32, eps=1e-05, momentum=0.1, affine=True, track_running_stats=True)
      (ReLU_1): ReLU()
      (MaxPool2d_1): MaxPool2d(kernel_size=2, stride=2, padding=0, dilation=1, ceil_mode=False)
    )
    (block3): Sequential(
      (Flatten_1): Flatten(start_dim=1, end_dim=-1)
      (Linear_1): Linear(in_features=28800, out_features=256, bias=True)
      (Sigmoid_1): Sigmoid()
      (Dropout_1): Dropout(p=0.2, inplace=False)
      (Linear_2): Linear(in_features=256, out_features=7, bias=True)
    )
  )
)
2024-03-30 19:41:41,563 - default - INFO - Export chekpoint model and metrics params to pt is completed. Path: saved_objects/test/models/checkpoints/pinpoint.pt
2024-03-30 19:42:35,483 - default - INFO - Export chekpoint model and metrics params to pt is completed. Path: saved_objects/test/models/checkpoints/pinpoint.pt
2024-03-30 19:52:19,687 - default - INFO - Class model: SpectrogramCNN
Model architecture:
SpectrogramCNN(
  (arch): Sequential(
    (block1): Sequential(
      (Conv2d_1): Conv2d(2, 16, kernel_size=(3, 3), stride=(1, 1))
      (BatchNorm2d_1): BatchNorm2d(16, eps=1e-05, momentum=0.1, affine=True, track_running_stats=True)
      (ReLU_1): ReLU()
      (MaxPool2d_1): MaxPool2d(kernel_size=2, stride=2, padding=0, dilation=1, ceil_mode=False)
    )
    (block2): Sequential(
      (Conv2d_1): Conv2d(16, 32, kernel_size=(3, 3), stride=(1, 1))
      (BatchNorm2d_1): BatchNorm2d(32, eps=1e-05, momentum=0.1, affine=True, track_running_stats=True)
      (ReLU_1): ReLU()
      (MaxPool2d_1): MaxPool2d(kernel_size=2, stride=2, padding=0, dilation=1, ceil_mode=False)
    )
    (block3): Sequential(
      (Flatten_1): Flatten(start_dim=1, end_dim=-1)
      (Linear_1): Linear(in_features=28800, out_features=256, bias=True)
      (Sigmoid_1): Sigmoid()
      (Dropout_1): Dropout(p=0.2, inplace=False)
      (Linear_2): Linear(in_features=256, out_features=7, bias=True)
    )
  )
)
2024-03-30 19:52:20,028 - root - WARNING - Warning: Some classes do not exist in the target. F1 scores for these classes will be cast to zeros.
2024-03-30 19:52:20,058 - root - WARNING - Warning: Some classes do not exist in the target. F1 scores for these classes will be cast to zeros.
2024-03-30 19:52:20,063 - root - WARNING - Warning: Some classes do not exist in the target. F1 scores for these classes will be cast to zeros.
…
2024-03-30 19:52:27,679 - root - WARNING - Warning: Some classes do not exist in the target. F1 scores for these classes will be cast to zeros.
2024-03-30 19:52:27,684 - root - WARNING - Warning: Some classes do not exist in the target. F1 scores for these classes will be cast to zeros.
2024-03-30 19:52:27,690 - root - WARNING - Warning: Some classes do not exist in the target. F1 scores for these classes will be cast to zeros.
2024-03-30 19:53:20,170 - default - INFO - Class model: SpectrogramCNN
Model architecture:
SpectrogramCNN(
  (arch): Sequential(
    (block1): Sequential(
      (Conv2d_1): Conv2d(2, 16, kernel_size=(3, 3), stride=(1, 1))
      (BatchNorm2d_1): BatchNorm2d(16, eps=1e-05, momentum=0.1, affine=True, track_running_stats=True)
      (ReLU_1): ReLU()
      (MaxPool2d_1): MaxPool2d(kernel_size=2, stride=2, padding=0, dilation=1, ceil_mode=False)
    )
    (block2): Sequential(
      (Conv2d_1): Conv2d(16, 32, kernel_size=(3, 3), stride=(1, 1))
      (BatchNorm2d_1): BatchNorm2d(32, eps=1e-05, momentum=0.1, affine=True, track_running_stats=True)
      (ReLU_1): ReLU()
      (MaxPool2d_1): MaxPool2d(kernel_size=2, stride=2, padding=0, dilation=1, ceil_mode=False)
    )
    (block3): Sequential(
      (Flatten_1): Flatten(start_dim=1, end_dim=-1)
      (Linear_1): Linear(in_features=28800, out_features=256, bias=True)
      (Sigmoid_1): Sigmoid()
      (Dropout_1): Dropout(p=0.2, inplace=False)
      (Linear_2): Linear(in_features=256, out_features=7, bias=True)
    )
  )
)
2024-03-30 19:54:13,321 - default - INFO - Export chekpoint model and metrics params to pt is completed. Path: saved_objects/test/models/checkpoints/pinpoint.pt
2024-03-30 19:55:06,425 - default - INFO - Export chekpoint model and metrics params to pt is completed. Path: saved_objects/test/models/checkpoints/pinpoint.pt
2024-03-30 19:58:48,097 - default - INFO - Class model: SpectrogramCNN
Model architecture:
SpectrogramCNN(
  (arch): Sequential(
    (block1): Sequential(
      (Conv2d_1): Conv2d(2, 16, kernel_size=(3, 3), stride=(1, 1))
      (BatchNorm2d_1): BatchNorm2d(16, eps=1e-05, momentum=0.1, affine=True, track_running_stats=True)
      (ReLU_1): ReLU()
      (MaxPool2d_1): MaxPool2d(kernel_size=2, stride=2, padding=0, dilation=1, ceil_mode=False)
    )
    (block2): Sequential(
      (Conv2d_1): Conv2d(16, 32, kernel_size=(3, 3), stride=(1, 1))
      (BatchNorm2d_1): BatchNorm2d(32, eps=1e-05, momentum=0.1, affine=True, track_running_stats=True)
      (ReLU_1): ReLU()
      (MaxPool2d_1): MaxPool2d(kernel_size=2, stride=2, padding=0, dilation=1, ceil_mode=False)
    )
    (block3): Sequential(
      (Flatten_1): Flatten(start_dim=1, end_dim=-1)
      (Linear_1): Linear(in_features=28800, out_features=256, bias=True)
      (Sigmoid_1): Sigmoid()
      (Dropout_1): Dropout(p=0.2, inplace=False)
      (Linear_2): Linear(in_features=256, out_features=7, bias=True)
    )
  )
)
2024-03-30 19:59:41,400 - default - INFO - Export chekpoint model and metrics params to pt is completed. Path: saved_objects/test/models/checkpoints/pinpoint.pt
2024-03-30 20:00:34,024 - default - INFO - Export chekpoint model and metrics params to pt is completed. Path: saved_objects/test/models/checkpoints/pinpoint.pt
2024-03-30 20:05:15,557 - default - INFO - Class model: SpectrogramCNN
Model architecture:
SpectrogramCNN(
  (arch): Sequential(
    (block1): Sequential(
      (Conv2d_1): Conv2d(2, 16, kernel_size=(3, 3), stride=(1, 1))
      (BatchNorm2d_1): BatchNorm2d(16, eps=1e-05, momentum=0.1, affine=True, track_running_stats=True)
      (ReLU_1): ReLU()
      (MaxPool2d_1): MaxPool2d(kernel_size=2, stride=2, padding=0, dilation=1, ceil_mode=False)
    )
    (block2): Sequential(
      (Conv2d_1): Conv2d(16, 32, kernel_size=(3, 3), stride=(1, 1))
      (BatchNorm2d_1): BatchNorm2d(32, eps=1e-05, momentum=0.1, affine=True, track_running_stats=True)
      (ReLU_1): ReLU()
      (MaxPool2d_1): MaxPool2d(kernel_size=2, stride=2, padding=0, dilation=1, ceil_mode=False)
    )
    (block3): Sequential(
      (Flatten_1): Flatten(start_dim=1, end_dim=-1)
      (Linear_1): Linear(in_features=28800, out_features=256, bias=True)
      (Sigmoid_1): Sigmoid()
      (Dropout_1): Dropout(p=0.2, inplace=False)
      (Linear_2): Linear(in_features=256, out_features=7, bias=True)
    )
  )
)
2024-03-30 20:05:47,165 - default - INFO - Class model: SpectrogramCNN
Model architecture:
SpectrogramCNN(
  (arch): Sequential(
    (block1): Sequential(
      (Conv2d_1): Conv2d(2, 16, kernel_size=(3, 3), stride=(1, 1))
      (BatchNorm2d_1): BatchNorm2d(16, eps=1e-05, momentum=0.1, affine=True, track_running_stats=True)
      (ReLU_1): ReLU()
      (MaxPool2d_1): MaxPool2d(kernel_size=2, stride=2, padding=0, dilation=1, ceil_mode=False)
    )
    (block2): Sequential(
      (Conv2d_1): Conv2d(16, 32, kernel_size=(3, 3), stride=(1, 1))
      (BatchNorm2d_1): BatchNorm2d(32, eps=1e-05, momentum=0.1, affine=True, track_running_stats=True)
      (ReLU_1): ReLU()
      (MaxPool2d_1): MaxPool2d(kernel_size=2, stride=2, padding=0, dilation=1, ceil_mode=False)
    )
    (block3): Sequential(
      (Flatten_1): Flatten(start_dim=1, end_dim=-1)
      (Linear_1): Linear(in_features=28800, out_features=256, bias=True)
      (Sigmoid_1): Sigmoid()
      (Dropout_1): Dropout(p=0.2, inplace=False)
      (Linear_2): Linear(in_features=256, out_features=7, bias=True)
    )
  )
)
2024-03-30 20:06:38,523 - default - INFO - Class model: SpectrogramCNN
Model architecture:
SpectrogramCNN(
  (arch): Sequential(
    (block1): Sequential(
      (Conv2d_1): Conv2d(2, 16, kernel_size=(3, 3), stride=(1, 1))
      (BatchNorm2d_1): BatchNorm2d(16, eps=1e-05, momentum=0.1, affine=True, track_running_stats=True)
      (ReLU_1): ReLU()
      (MaxPool2d_1): MaxPool2d(kernel_size=2, stride=2, padding=0, dilation=1, ceil_mode=False)
    )
    (block2): Sequential(
      (Conv2d_1): Conv2d(16, 32, kernel_size=(3, 3), stride=(1, 1))
      (BatchNorm2d_1): BatchNorm2d(32, eps=1e-05, momentum=0.1, affine=True, track_running_stats=True)
      (ReLU_1): ReLU()
      (MaxPool2d_1): MaxPool2d(kernel_size=2, stride=2, padding=0, dilation=1, ceil_mode=False)
    )
    (block3): Sequential(
      (Flatten_1): Flatten(start_dim=1, end_dim=-1)
      (Linear_1): Linear(in_features=28800, out_features=256, bias=True)
      (Sigmoid_1): Sigmoid()
      (Dropout_1): Dropout(p=0.2, inplace=False)
      (Linear_2): Linear(in_features=256, out_features=7, bias=True)
    )
  )
)
2024-03-30 20:10:59,585 - default - INFO - Class model: SpectrogramCNN
Model architecture:
SpectrogramCNN(
  (arch): Sequential(
    (block1): Sequential(
      (Conv2d_1): Conv2d(2, 16, kernel_size=(3, 3), stride=(1, 1))
      (BatchNorm2d_1): BatchNorm2d(16, eps=1e-05, momentum=0.1, affine=True, track_running_stats=True)
      (ReLU_1): ReLU()
      (MaxPool2d_1): MaxPool2d(kernel_size=2, stride=2, padding=0, dilation=1, ceil_mode=False)
    )
    (block2): Sequential(
      (Conv2d_1): Conv2d(16, 32, kernel_size=(3, 3), stride=(1, 1))
      (BatchNorm2d_1): BatchNorm2d(32, eps=1e-05, momentum=0.1, affine=True, track_running_stats=True)
      (ReLU_1): ReLU()
      (MaxPool2d_1): MaxPool2d(kernel_size=2, stride=2, padding=0, dilation=1, ceil_mode=False)
    )
    (block3): Sequential(
      (Flatten_1): Flatten(start_dim=1, end_dim=-1)
      (Linear_1): Linear(in_features=28800, out_features=256, bias=True)
      (Sigmoid_1): Sigmoid()
      (Dropout_1): Dropout(p=0.2, inplace=False)
      (Linear_2): Linear(in_features=256, out_features=7, bias=True)
    )
  )
)
2024-03-30 20:11:51,936 - default - INFO - Export chekpoint model and metrics params to pt is completed. Path: saved_objects/test/models/checkpoints/pinpoint.pt
2024-03-30 20:14:06,631 - default - INFO - Class model: SpectrogramCNN
Model architecture:
SpectrogramCNN(
  (arch): Sequential(
    (block1): Sequential(
      (Conv2d_1): Conv2d(2, 16, kernel_size=(3, 3), stride=(1, 1))
      (BatchNorm2d_1): BatchNorm2d(16, eps=1e-05, momentum=0.1, affine=True, track_running_stats=True)
      (ReLU_1): ReLU()
      (MaxPool2d_1): MaxPool2d(kernel_size=2, stride=2, padding=0, dilation=1, ceil_mode=False)
    )
    (block2): Sequential(
      (Conv2d_1): Conv2d(16, 32, kernel_size=(3, 3), stride=(1, 1))
      (BatchNorm2d_1): BatchNorm2d(32, eps=1e-05, momentum=0.1, affine=True, track_running_stats=True)
      (ReLU_1): ReLU()
      (MaxPool2d_1): MaxPool2d(kernel_size=2, stride=2, padding=0, dilation=1, ceil_mode=False)
    )
    (block3): Sequential(
      (Flatten_1): Flatten(start_dim=1, end_dim=-1)
      (Linear_1): Linear(in_features=28800, out_features=256, bias=True)
      (Sigmoid_1): Sigmoid()
      (Dropout_1): Dropout(p=0.2, inplace=False)
      (Linear_2): Linear(in_features=256, out_features=7, bias=True)
    )
  )
)
2024-03-30 20:14:59,029 - default - INFO - Export chekpoint model and metrics params to pt is completed. Path: saved_objects/test/models/checkpoints/pinpoint.pt
2024-03-30 20:19:05,637 - default - INFO - Class model: SpectrogramCNN
Model architecture:
SpectrogramCNN(
  (arch): Sequential(
    (block1): Sequential(
      (Conv2d_1): Conv2d(2, 16, kernel_size=(3, 3), stride=(1, 1))
      (BatchNorm2d_1): BatchNorm2d(16, eps=1e-05, momentum=0.1, affine=True, track_running_stats=True)
      (ReLU_1): ReLU()
      (MaxPool2d_1): MaxPool2d(kernel_size=2, stride=2, padding=0, dilation=1, ceil_mode=False)
    )
    (block2): Sequential(
      (Conv2d_1): Conv2d(16, 32, kernel_size=(3, 3), stride=(1, 1))
      (BatchNorm2d_1): BatchNorm2d(32, eps=1e-05, momentum=0.1, affine=True, track_running_stats=True)
      (ReLU_1): ReLU()
      (MaxPool2d_1): MaxPool2d(kernel_size=2, stride=2, padding=0, dilation=1, ceil_mode=False)
    )
    (block3): Sequential(
      (Flatten_1): Flatten(start_dim=1, end_dim=-1)
      (Linear_1): Linear(in_features=28800, out_features=256, bias=True)
      (Sigmoid_1): Sigmoid()
      (Dropout_1): Dropout(p=0.2, inplace=False)
      (Linear_2): Linear(in_features=256, out_features=7, bias=True)
    )
  )
)
2024-03-30 20:23:23,523 - default - INFO - Class model: SpectrogramCNN
Model architecture:
SpectrogramCNN(
  (arch): Sequential(
    (block1): Sequential(
      (Conv2d_1): Conv2d(2, 16, kernel_size=(3, 3), stride=(1, 1))
      (BatchNorm2d_1): BatchNorm2d(16, eps=1e-05, momentum=0.1, affine=True, track_running_stats=True)
      (ReLU_1): ReLU()
      (MaxPool2d_1): MaxPool2d(kernel_size=2, stride=2, padding=0, dilation=1, ceil_mode=False)
    )
    (block2): Sequential(
      (Conv2d_1): Conv2d(16, 32, kernel_size=(3, 3), stride=(1, 1))
      (BatchNorm2d_1): BatchNorm2d(32, eps=1e-05, momentum=0.1, affine=True, track_running_stats=True)
      (ReLU_1): ReLU()
      (MaxPool2d_1): MaxPool2d(kernel_size=2, stride=2, padding=0, dilation=1, ceil_mode=False)
    )
    (block3): Sequential(
      (Flatten_1): Flatten(start_dim=1, end_dim=-1)
      (Linear_1): Linear(in_features=28800, out_features=256, bias=True)
      (Sigmoid_1): Sigmoid()
      (Dropout_1): Dropout(p=0.2, inplace=False)
      (Linear_2): Linear(in_features=256, out_features=7, bias=True)
    )
  )
)
2024-03-30 20:24:15,833 - default - INFO - Export chekpoint model and metrics params to pt is completed. Path: saved_objects/test/models/checkpoints/pinpoint.pt
2024-03-30 20:25:00,777 - default - INFO - Class model: SpectrogramCNN
Model architecture:
SpectrogramCNN(
  (arch): Sequential(
    (block1): Sequential(
      (Conv2d_1): Conv2d(2, 16, kernel_size=(3, 3), stride=(1, 1))
      (BatchNorm2d_1): BatchNorm2d(16, eps=1e-05, momentum=0.1, affine=True, track_running_stats=True)
      (ReLU_1): ReLU()
      (MaxPool2d_1): MaxPool2d(kernel_size=2, stride=2, padding=0, dilation=1, ceil_mode=False)
    )
    (block2): Sequential(
      (Conv2d_1): Conv2d(16, 32, kernel_size=(3, 3), stride=(1, 1))
      (BatchNorm2d_1): BatchNorm2d(32, eps=1e-05, momentum=0.1, affine=True, track_running_stats=True)
      (ReLU_1): ReLU()
      (MaxPool2d_1): MaxPool2d(kernel_size=2, stride=2, padding=0, dilation=1, ceil_mode=False)
    )
    (block3): Sequential(
      (Flatten_1): Flatten(start_dim=1, end_dim=-1)
      (Linear_1): Linear(in_features=28800, out_features=256, bias=True)
      (Sigmoid_1): Sigmoid()
      (Dropout_1): Dropout(p=0.2, inplace=False)
      (Linear_2): Linear(in_features=256, out_features=7, bias=True)
    )
  )
)
2024-03-30 20:25:55,258 - default - INFO - Export chekpoint model and metrics params to pt is completed. Path: saved_objects/test/models/checkpoints/pinpoint.pt
2024-03-30 20:26:53,050 - default - INFO - Export chekpoint model and metrics params to pt is completed. Path: saved_objects/test/models/checkpoints/pinpoint.pt
2024-03-30 21:09:21,208 - default - INFO - Class model: SpectrogramCNN
Model architecture:
SpectrogramCNN(
  (arch): Sequential(
    (block1): Sequential(
      (Conv2d_1): Conv2d(2, 16, kernel_size=(3, 3), stride=(1, 1))
      (BatchNorm2d_1): BatchNorm2d(16, eps=1e-05, momentum=0.1, affine=True, track_running_stats=True)
      (ReLU_1): ReLU()
      (MaxPool2d_1): MaxPool2d(kernel_size=2, stride=2, padding=0, dilation=1, ceil_mode=False)
    )
    (block2): Sequential(
      (Conv2d_1): Conv2d(16, 32, kernel_size=(3, 3), stride=(1, 1))
      (BatchNorm2d_1): BatchNorm2d(32, eps=1e-05, momentum=0.1, affine=True, track_running_stats=True)
      (ReLU_1): ReLU()
      (MaxPool2d_1): MaxPool2d(kernel_size=2, stride=2, padding=0, dilation=1, ceil_mode=False)
    )
    (block3): Sequential(
      (Flatten_1): Flatten(start_dim=1, end_dim=-1)
      (Linear_1): Linear(in_features=28800, out_features=256, bias=True)
      (Sigmoid_1): Sigmoid()
      (Dropout_1): Dropout(p=0.2, inplace=False)
      (Linear_2): Linear(in_features=256, out_features=7, bias=True)
    )
  )
)
2024-03-30 21:10:19,846 - default - INFO - Export chekpoint model and metrics params to pt is completed. Path: saved_objects/test/models/checkpoints/pinpoint.pt
2024-03-30 21:11:17,536 - default - INFO - Export chekpoint model and metrics params to pt is completed. Path: saved_objects/test/models/checkpoints/pinpoint.pt
2024-03-30 21:31:15,894 - default - INFO - Class model: SpectrogramCNN
Model architecture:
SpectrogramCNN(
  (arch): Sequential(
    (block1): Sequential(
      (Conv2d_1): Conv2d(2, 16, kernel_size=(3, 3), stride=(1, 1))
      (BatchNorm2d_1): BatchNorm2d(16, eps=1e-05, momentum=0.1, affine=True, track_running_stats=True)
      (ReLU_1): ReLU()
      (MaxPool2d_1): MaxPool2d(kernel_size=2, stride=2, padding=0, dilation=1, ceil_mode=False)
    )
    (block2): Sequential(
      (Conv2d_1): Conv2d(16, 32, kernel_size=(3, 3), stride=(1, 1))
      (BatchNorm2d_1): BatchNorm2d(32, eps=1e-05, momentum=0.1, affine=True, track_running_stats=True)
      (ReLU_1): ReLU()
      (MaxPool2d_1): MaxPool2d(kernel_size=2, stride=2, padding=0, dilation=1, ceil_mode=False)
    )
    (block3): Sequential(
      (Flatten_1): Flatten(start_dim=1, end_dim=-1)
      (Linear_1): Linear(in_features=28800, out_features=256, bias=True)
      (Sigmoid_1): Sigmoid()
      (Dropout_1): Dropout(p=0.2, inplace=False)
      (Linear_2): Linear(in_features=256, out_features=7, bias=True)
    )
  )
)
2024-03-30 21:32:14,416 - default - INFO - Export chekpoint model and metrics params to pt is completed. Path: saved_objects/test/models/checkpoints/pinpoint.pt
2024-03-30 21:33:12,249 - default - INFO - Export chekpoint model and metrics params to pt is completed. Path: saved_objects/test/models/checkpoints/pinpoint.pt
2024-03-30 21:53:44,768 - default - INFO - Class model: SpectrogramCNN
Model architecture:
SpectrogramCNN(
  (arch): Sequential(
    (block1): Sequential(
      (Conv2d_1): Conv2d(2, 16, kernel_size=(3, 3), stride=(1, 1))
      (BatchNorm2d_1): BatchNorm2d(16, eps=1e-05, momentum=0.1, affine=True, track_running_stats=True)
      (ReLU_1): ReLU()
      (MaxPool2d_1): MaxPool2d(kernel_size=2, stride=2, padding=0, dilation=1, ceil_mode=False)
    )
    (block2): Sequential(
      (Conv2d_1): Conv2d(16, 32, kernel_size=(3, 3), stride=(1, 1))
      (BatchNorm2d_1): BatchNorm2d(32, eps=1e-05, momentum=0.1, affine=True, track_running_stats=True)
      (ReLU_1): ReLU()
      (MaxPool2d_1): MaxPool2d(kernel_size=2, stride=2, padding=0, dilation=1, ceil_mode=False)
    )
    (block3): Sequential(
      (Flatten_1): Flatten(start_dim=1, end_dim=-1)
      (Linear_1): Linear(in_features=28800, out_features=256, bias=True)
      (Sigmoid_1): Sigmoid()
      (Dropout_1): Dropout(p=0.2, inplace=False)
      (Linear_2): Linear(in_features=256, out_features=7, bias=True)
    )
  )
)
2024-03-30 21:54:37,307 - default - INFO - Export chekpoint model and metrics params to pt is completed. Path: saved_objects/test/models/checkpoints/pinpoint.pt
2024-03-31 01:20:05,588 - default - INFO - Class model: SpectrogramCNN
Model architecture:
SpectrogramCNN(
  (arch): Sequential(
    (block1): Sequential(
      (Conv2d_1): Conv2d(2, 16, kernel_size=(3, 3), stride=(1, 1))
      (BatchNorm2d_1): BatchNorm2d(16, eps=1e-05, momentum=0.1, affine=True, track_running_stats=True)
      (ReLU_1): ReLU()
      (MaxPool2d_1): MaxPool2d(kernel_size=2, stride=2, padding=0, dilation=1, ceil_mode=False)
    )
    (block2): Sequential(
      (Conv2d_1): Conv2d(16, 32, kernel_size=(3, 3), stride=(1, 1))
      (BatchNorm2d_1): BatchNorm2d(32, eps=1e-05, momentum=0.1, affine=True, track_running_stats=True)
      (ReLU_1): ReLU()
      (MaxPool2d_1): MaxPool2d(kernel_size=2, stride=2, padding=0, dilation=1, ceil_mode=False)
    )
    (block3): Sequential(
      (Flatten_1): Flatten(start_dim=1, end_dim=-1)
      (Linear_1): Linear(in_features=28800, out_features=256, bias=True)
      (Sigmoid_1): Sigmoid()
      (Dropout_1): Dropout(p=0.2, inplace=False)
      (Linear_2): Linear(in_features=256, out_features=7, bias=True)
    )
  )
)
2024-03-31 01:20:58,822 - default - INFO - Export chekpoint model and metrics params to pt is completed. Path: saved_objects/test/models/checkpoints/pinpoint_0.pt
2024-03-31 01:20:59,637 - default - INFO - Save metrics in yml. Path: saved_objects/test/metrics/test_metric.yml
2024-03-31 01:24:18,655 - default - INFO - Class model: SpectrogramCNN
Model architecture:
SpectrogramCNN(
  (arch): Sequential(
    (block1): Sequential(
      (Conv2d_1): Conv2d(2, 16, kernel_size=(3, 3), stride=(1, 1))
      (BatchNorm2d_1): BatchNorm2d(16, eps=1e-05, momentum=0.1, affine=True, track_running_stats=True)
      (ReLU_1): ReLU()
      (MaxPool2d_1): MaxPool2d(kernel_size=2, stride=2, padding=0, dilation=1, ceil_mode=False)
    )
    (block2): Sequential(
      (Conv2d_1): Conv2d(16, 32, kernel_size=(3, 3), stride=(1, 1))
      (BatchNorm2d_1): BatchNorm2d(32, eps=1e-05, momentum=0.1, affine=True, track_running_stats=True)
      (ReLU_1): ReLU()
      (MaxPool2d_1): MaxPool2d(kernel_size=2, stride=2, padding=0, dilation=1, ceil_mode=False)
    )
    (block3): Sequential(
      (Flatten_1): Flatten(start_dim=1, end_dim=-1)
      (Linear_1): Linear(in_features=28800, out_features=256, bias=True)
      (Sigmoid_1): Sigmoid()
      (Dropout_1): Dropout(p=0.2, inplace=False)
      (Linear_2): Linear(in_features=256, out_features=7, bias=True)
    )
  )
)
2024-03-31 01:24:53,802 - default - INFO - Export chekpoint model and metrics params to pt is completed. Path: saved_objects/test/models/checkpoints/pinpoint_0.pt
2024-03-31 01:24:54,301 - default - INFO - Save metrics in yml. Path: saved_objects/test/metrics/test_metric.yml
2024-03-31 01:26:16,903 - default - INFO - Class model: SpectrogramCNN
Model architecture:
SpectrogramCNN(
  (arch): Sequential(
    (block1): Sequential(
      (Conv2d_1): Conv2d(2, 16, kernel_size=(3, 3), stride=(1, 1))
      (BatchNorm2d_1): BatchNorm2d(16, eps=1e-05, momentum=0.1, affine=True, track_running_stats=True)
      (ReLU_1): ReLU()
      (MaxPool2d_1): MaxPool2d(kernel_size=2, stride=2, padding=0, dilation=1, ceil_mode=False)
    )
    (block2): Sequential(
      (Conv2d_1): Conv2d(16, 32, kernel_size=(3, 3), stride=(1, 1))
      (BatchNorm2d_1): BatchNorm2d(32, eps=1e-05, momentum=0.1, affine=True, track_running_stats=True)
      (ReLU_1): ReLU()
      (MaxPool2d_1): MaxPool2d(kernel_size=2, stride=2, padding=0, dilation=1, ceil_mode=False)
    )
    (block3): Sequential(
      (Flatten_1): Flatten(start_dim=1, end_dim=-1)
      (Linear_1): Linear(in_features=28800, out_features=256, bias=True)
      (Sigmoid_1): Sigmoid()
      (Dropout_1): Dropout(p=0.2, inplace=False)
      (Linear_2): Linear(in_features=256, out_features=7, bias=True)
    )
  )
)
2024-03-31 01:26:51,934 - default - INFO - Export chekpoint model and metrics params to pt is completed. Path: saved_objects/test/models/checkpoints/pinpoint_0.pt
2024-03-31 01:26:52,074 - default - INFO - Save metrics in yml. Path: saved_objects/test/metrics/test_metric.yml
2024-03-31 01:40:37,484 - default - INFO - Class model: SpectrogramCNN
Model architecture:
SpectrogramCNN(
  (arch): Sequential(
    (block1): Sequential(
      (Conv2d_1): Conv2d(2, 16, kernel_size=(3, 3), stride=(1, 1))
      (BatchNorm2d_1): BatchNorm2d(16, eps=1e-05, momentum=0.1, affine=True, track_running_stats=True)
      (ReLU_1): ReLU()
      (MaxPool2d_1): MaxPool2d(kernel_size=2, stride=2, padding=0, dilation=1, ceil_mode=False)
    )
    (block2): Sequential(
      (Conv2d_1): Conv2d(16, 32, kernel_size=(3, 3), stride=(1, 1))
      (BatchNorm2d_1): BatchNorm2d(32, eps=1e-05, momentum=0.1, affine=True, track_running_stats=True)
      (ReLU_1): ReLU()
      (MaxPool2d_1): MaxPool2d(kernel_size=2, stride=2, padding=0, dilation=1, ceil_mode=False)
    )
    (block3): Sequential(
      (Flatten_1): Flatten(start_dim=1, end_dim=-1)
      (Linear_1): Linear(in_features=28800, out_features=256, bias=True)
      (Sigmoid_1): Sigmoid()
      (Dropout_1): Dropout(p=0.2, inplace=False)
      (Linear_2): Linear(in_features=256, out_features=7, bias=True)
    )
  )
)
2024-03-31 01:41:30,838 - default - INFO - Export chekpoint model and metrics params to pt is completed. Path: saved_objects/test/models/checkpoints/pinpoint_0.pt
2024-03-31 01:41:31,143 - default - INFO - Save metrics in yml. Path: saved_objects/test/metrics/test_metric.yml
